…
2024-06-10 23:03:50,048 - tensorflow - DEBUG - Layer lstm_2 will use cuDNN kernels when running on GPU.
2024-06-10 23:03:50.385326: W tensorflow/python/util/util.cc:368] Sets are not currently considered sequences, but this may change in the future, so consider avoiding using them.
Model: "model"
_________________________________________________________________
 Layer (type)                Output Shape              Param #   
=================================================================
 input_1 (InputLayer)        [(None, 2058, 10, 1)]     0         
                                                                 
 batch_normalization (BatchN  (None, 2058, 10, 1)      4         
 ormalization)                                                   
                                                                 
 time_distributed (TimeDistr  (None, 2058, 10, 64)     256       
 ibuted)                                                         
                                                                 
 time_distributed_1 (TimeDis  (None, 2058, 10, 32)     6176      
 tributed)                                                       
                                                                 
 dropout (Dropout)           (None, 2058, 10, 32)      0         
                                                                 
 batch_normalization_1 (Batc  (None, 2058, 10, 32)     128       
 hNormalization)                                                 
                                                                 
 time_distributed_multi_head  (None, 2058, 10, 32)     16800     
 _attention (TimeDistributed                                     
 MultiHeadAttention)                                             
                                                                 
 time_distributed_2 (TimeDis  (None, 2058, 320)        0         
 tributed)                                                       
                                                                 
 bidirectional (Bidirectiona  (None, 2058, 64)         90368     
 l)                                                              
                                                                 
 bidirectional_1 (Bidirectio  (None, 2058, 64)         24832     
 nal)                                                            
                                                                 
 bidirectional_2 (Bidirectio  (None, 2058, 64)         24832     
 nal)                                                            
                                                                 
 dense (Dense)               (None, 2058, 2)           130       
                                                                 
 independent_normal (Indepen  ((None, 2058, 1),        0         
 dentNormal)                  (None, 2058, 1))                   
                                                                 
=================================================================
Total params: 163,526
Trainable params: 163,460
Non-trainable params: 66
…
